{"class_name": "Model", "keras_version": "2.1.6-tf", "config": {"layers": [{"class_name": "InputLayer", "config": {"dtype": "float32", "batch_input_shape": [null, 224, 224, 3], "name": "input_1", "sparse": false}, "inbound_nodes": [], "name": "input_1"}, {"class_name": "Conv2D", "config": {"kernel_initializer": {"class_name": "VarianceScaling", "config": {"dtype": "float32", "distribution": "uniform", "scale": 1.0, "seed": null, "mode": "fan_avg"}}, "name": "block1_conv1", "kernel_constraint": null, "bias_regularizer": null, "bias_constraint": null, "dtype": "float32", "activation": "relu", "trainable": true, "data_format": "channels_last", "padding": "same", "strides": [1, 1], "dilation_rate": [1, 1], "kernel_regularizer": null, "filters": 64, "bias_initializer": {"class_name": "Zeros", "config": {"dtype": "float32"}}, "use_bias": true, "activity_regularizer": null, "kernel_size": [3, 3]}, "inbound_nodes": [[["input_1", 0, 0, {}]]], "name": "block1_conv1"}, {"class_name": "Conv2D", "config": {"kernel_initializer": {"class_name": "VarianceScaling", "config": {"dtype": "float32", "distribution": "uniform", "scale": 1.0, "seed": null, "mode": "fan_avg"}}, "name": "block1_conv2", "kernel_constraint": null, "bias_regularizer": null, "bias_constraint": null, "dtype": "float32", "activation": "relu", "trainable": true, "data_format": "channels_last", "padding": "same", "strides": [1, 1], "dilation_rate": [1, 1], "kernel_regularizer": null, "filters": 64, "bias_initializer": {"class_name": "Zeros", "config": {"dtype": "float32"}}, "use_bias": true, "activity_regularizer": null, "kernel_size": [3, 3]}, "inbound_nodes": [[["block1_conv1", 0, 0, {}]]], "name": "block1_conv2"}, {"class_name": "MaxPooling2D", "config": {"name": "block1_pool", "dtype": "float32", "trainable": true, "data_format": "channels_last", "pool_size": [2, 2], "padding": "valid", "strides": [2, 2]}, "inbound_nodes": [[["block1_conv2", 0, 0, {}]]], "name": "block1_pool"}, {"class_name": "Conv2D", "config": {"kernel_initializer": {"class_name": "VarianceScaling", "config": {"dtype": "float32", "distribution": "uniform", "scale": 1.0, "seed": null, "mode": "fan_avg"}}, "name": "block2_conv1", "kernel_constraint": null, "bias_regularizer": null, "bias_constraint": null, "dtype": "float32", "activation": "relu", "trainable": true, "data_format": "channels_last", "padding": "same", "strides": [1, 1], "dilation_rate": [1, 1], "kernel_regularizer": null, "filters": 128, "bias_initializer": {"class_name": "Zeros", "config": {"dtype": "float32"}}, "use_bias": true, "activity_regularizer": null, "kernel_size": [3, 3]}, "inbound_nodes": [[["block1_pool", 0, 0, {}]]], "name": "block2_conv1"}, {"class_name": "Conv2D", "config": {"kernel_initializer": {"class_name": "VarianceScaling", "config": {"dtype": "float32", "distribution": "uniform", "scale": 1.0, "seed": null, "mode": "fan_avg"}}, "name": "block2_conv2", "kernel_constraint": null, "bias_regularizer": null, "bias_constraint": null, "dtype": "float32", "activation": "relu", "trainable": true, "data_format": "channels_last", "padding": "same", "strides": [1, 1], "dilation_rate": [1, 1], "kernel_regularizer": null, "filters": 128, "bias_initializer": {"class_name": "Zeros", "config": {"dtype": "float32"}}, "use_bias": true, "activity_regularizer": null, "kernel_size": [3, 3]}, "inbound_nodes": [[["block2_conv1", 0, 0, {}]]], "name": "block2_conv2"}, {"class_name": "MaxPooling2D", "config": {"name": "block2_pool", "dtype": "float32", "trainable": true, "data_format": "channels_last", "pool_size": [2, 2], "padding": "valid", "strides": [2, 2]}, "inbound_nodes": [[["block2_conv2", 0, 0, {}]]], "name": "block2_pool"}, {"class_name": "Conv2D", "config": {"kernel_initializer": {"class_name": "VarianceScaling", "config": {"dtype": "float32", "distribution": "uniform", "scale": 1.0, "seed": null, "mode": "fan_avg"}}, "name": "block3_conv1", "kernel_constraint": null, "bias_regularizer": null, "bias_constraint": null, "dtype": "float32", "activation": "relu", "trainable": true, "data_format": "channels_last", "padding": "same", "strides": [1, 1], "dilation_rate": [1, 1], "kernel_regularizer": null, "filters": 256, "bias_initializer": {"class_name": "Zeros", "config": {"dtype": "float32"}}, "use_bias": true, "activity_regularizer": null, "kernel_size": [3, 3]}, "inbound_nodes": [[["block2_pool", 0, 0, {}]]], "name": "block3_conv1"}, {"class_name": "Conv2D", "config": {"kernel_initializer": {"class_name": "VarianceScaling", "config": {"dtype": "float32", "distribution": "uniform", "scale": 1.0, "seed": null, "mode": "fan_avg"}}, "name": "block3_conv2", "kernel_constraint": null, "bias_regularizer": null, "bias_constraint": null, "dtype": "float32", "activation": "relu", "trainable": true, "data_format": "channels_last", "padding": "same", "strides": [1, 1], "dilation_rate": [1, 1], "kernel_regularizer": null, "filters": 256, "bias_initializer": {"class_name": "Zeros", "config": {"dtype": "float32"}}, "use_bias": true, "activity_regularizer": null, "kernel_size": [3, 3]}, "inbound_nodes": [[["block3_conv1", 0, 0, {}]]], "name": "block3_conv2"}, {"class_name": "Conv2D", "config": {"kernel_initializer": {"class_name": "VarianceScaling", "config": {"dtype": "float32", "distribution": "uniform", "scale": 1.0, "seed": null, "mode": "fan_avg"}}, "name": "block3_conv3", "kernel_constraint": null, "bias_regularizer": null, "bias_constraint": null, "dtype": "float32", "activation": "relu", "trainable": true, "data_format": "channels_last", "padding": "same", "strides": [1, 1], "dilation_rate": [1, 1], "kernel_regularizer": null, "filters": 256, "bias_initializer": {"class_name": "Zeros", "config": {"dtype": "float32"}}, "use_bias": true, "activity_regularizer": null, "kernel_size": [3, 3]}, "inbound_nodes": [[["block3_conv2", 0, 0, {}]]], "name": "block3_conv3"}, {"class_name": "Conv2D", "config": {"kernel_initializer": {"class_name": "VarianceScaling", "config": {"dtype": "float32", "distribution": "uniform", "scale": 1.0, "seed": null, "mode": "fan_avg"}}, "name": "block3_conv4", "kernel_constraint": null, "bias_regularizer": null, "bias_constraint": null, "dtype": "float32", "activation": "relu", "trainable": true, "data_format": "channels_last", "padding": "same", "strides": [1, 1], "dilation_rate": [1, 1], "kernel_regularizer": null, "filters": 256, "bias_initializer": {"class_name": "Zeros", "config": {"dtype": "float32"}}, "use_bias": true, "activity_regularizer": null, "kernel_size": [3, 3]}, "inbound_nodes": [[["block3_conv3", 0, 0, {}]]], "name": "block3_conv4"}, {"class_name": "MaxPooling2D", "config": {"name": "block3_pool", "dtype": "float32", "trainable": true, "data_format": "channels_last", "pool_size": [2, 2], "padding": "valid", "strides": [2, 2]}, "inbound_nodes": [[["block3_conv4", 0, 0, {}]]], "name": "block3_pool"}, {"class_name": "Conv2D", "config": {"kernel_initializer": {"class_name": "VarianceScaling", "config": {"dtype": "float32", "distribution": "uniform", "scale": 1.0, "seed": null, "mode": "fan_avg"}}, "name": "block4_conv1", "kernel_constraint": null, "bias_regularizer": null, "bias_constraint": null, "dtype": "float32", "activation": "relu", "trainable": true, "data_format": "channels_last", "padding": "same", "strides": [1, 1], "dilation_rate": [1, 1], "kernel_regularizer": null, "filters": 512, "bias_initializer": {"class_name": "Zeros", "config": {"dtype": "float32"}}, "use_bias": true, "activity_regularizer": null, "kernel_size": [3, 3]}, "inbound_nodes": [[["block3_pool", 0, 0, {}]]], "name": "block4_conv1"}, {"class_name": "Conv2D", "config": {"kernel_initializer": {"class_name": "VarianceScaling", "config": {"dtype": "float32", "distribution": "uniform", "scale": 1.0, "seed": null, "mode": "fan_avg"}}, "name": "block4_conv2", "kernel_constraint": null, "bias_regularizer": null, "bias_constraint": null, "dtype": "float32", "activation": "relu", "trainable": true, "data_format": "channels_last", "padding": "same", "strides": [1, 1], "dilation_rate": [1, 1], "kernel_regularizer": null, "filters": 512, "bias_initializer": {"class_name": "Zeros", "config": {"dtype": "float32"}}, "use_bias": true, "activity_regularizer": null, "kernel_size": [3, 3]}, "inbound_nodes": [[["block4_conv1", 0, 0, {}]]], "name": "block4_conv2"}, {"class_name": "Conv2D", "config": {"kernel_initializer": {"class_name": "VarianceScaling", "config": {"dtype": "float32", "distribution": "uniform", "scale": 1.0, "seed": null, "mode": "fan_avg"}}, "name": "block4_conv3", "kernel_constraint": null, "bias_regularizer": null, "bias_constraint": null, "dtype": "float32", "activation": "relu", "trainable": true, "data_format": "channels_last", "padding": "same", "strides": [1, 1], "dilation_rate": [1, 1], "kernel_regularizer": null, "filters": 512, "bias_initializer": {"class_name": "Zeros", "config": {"dtype": "float32"}}, "use_bias": true, "activity_regularizer": null, "kernel_size": [3, 3]}, "inbound_nodes": [[["block4_conv2", 0, 0, {}]]], "name": "block4_conv3"}, {"class_name": "Conv2D", "config": {"kernel_initializer": {"class_name": "VarianceScaling", "config": {"dtype": "float32", "distribution": "uniform", "scale": 1.0, "seed": null, "mode": "fan_avg"}}, "name": "block4_conv4", "kernel_constraint": null, "bias_regularizer": null, "bias_constraint": null, "dtype": "float32", "activation": "relu", "trainable": true, "data_format": "channels_last", "padding": "same", "strides": [1, 1], "dilation_rate": [1, 1], "kernel_regularizer": null, "filters": 512, "bias_initializer": {"class_name": "Zeros", "config": {"dtype": "float32"}}, "use_bias": true, "activity_regularizer": null, "kernel_size": [3, 3]}, "inbound_nodes": [[["block4_conv3", 0, 0, {}]]], "name": "block4_conv4"}, {"class_name": "MaxPooling2D", "config": {"name": "block4_pool", "dtype": "float32", "trainable": true, "data_format": "channels_last", "pool_size": [2, 2], "padding": "valid", "strides": [2, 2]}, "inbound_nodes": [[["block4_conv4", 0, 0, {}]]], "name": "block4_pool"}, {"class_name": "Conv2D", "config": {"kernel_initializer": {"class_name": "VarianceScaling", "config": {"dtype": "float32", "distribution": "uniform", "scale": 1.0, "seed": null, "mode": "fan_avg"}}, "name": "block5_conv1", "kernel_constraint": null, "bias_regularizer": null, "bias_constraint": null, "dtype": "float32", "activation": "relu", "trainable": true, "data_format": "channels_last", "padding": "same", "strides": [1, 1], "dilation_rate": [1, 1], "kernel_regularizer": null, "filters": 512, "bias_initializer": {"class_name": "Zeros", "config": {"dtype": "float32"}}, "use_bias": true, "activity_regularizer": null, "kernel_size": [3, 3]}, "inbound_nodes": [[["block4_pool", 0, 0, {}]]], "name": "block5_conv1"}, {"class_name": "Conv2D", "config": {"kernel_initializer": {"class_name": "VarianceScaling", "config": {"dtype": "float32", "distribution": "uniform", "scale": 1.0, "seed": null, "mode": "fan_avg"}}, "name": "block5_conv2", "kernel_constraint": null, "bias_regularizer": null, "bias_constraint": null, "dtype": "float32", "activation": "relu", "trainable": true, "data_format": "channels_last", "padding": "same", "strides": [1, 1], "dilation_rate": [1, 1], "kernel_regularizer": null, "filters": 512, "bias_initializer": {"class_name": "Zeros", "config": {"dtype": "float32"}}, "use_bias": true, "activity_regularizer": null, "kernel_size": [3, 3]}, "inbound_nodes": [[["block5_conv1", 0, 0, {}]]], "name": "block5_conv2"}, {"class_name": "InputLayer", "config": {"dtype": "float32", "batch_input_shape": [null, 224, 224, 3], "name": "input_2", "sparse": false}, "inbound_nodes": [], "name": "input_2"}, {"class_name": "InputLayer", "config": {"dtype": "float32", "batch_input_shape": [null, 224, 224, 3], "name": "input_3", "sparse": false}, "inbound_nodes": [], "name": "input_3"}, {"class_name": "Conv2D", "config": {"kernel_initializer": {"class_name": "VarianceScaling", "config": {"dtype": "float32", "distribution": "uniform", "scale": 1.0, "seed": null, "mode": "fan_avg"}}, "name": "block5_conv3", "kernel_constraint": null, "bias_regularizer": null, "bias_constraint": null, "dtype": "float32", "activation": "relu", "trainable": true, "data_format": "channels_last", "padding": "same", "strides": [1, 1], "dilation_rate": [1, 1], "kernel_regularizer": null, "filters": 512, "bias_initializer": {"class_name": "Zeros", "config": {"dtype": "float32"}}, "use_bias": true, "activity_regularizer": null, "kernel_size": [3, 3]}, "inbound_nodes": [[["block5_conv2", 0, 0, {}]]], "name": "block5_conv3"}, {"class_name": "MaxPooling2D", "config": {"name": "max_pooling2d", "dtype": "float32", "trainable": true, "data_format": "channels_last", "pool_size": [4, 4], "padding": "valid", "strides": [4, 4]}, "inbound_nodes": [[["input_2", 0, 0, {}]]], "name": "max_pooling2d"}, {"class_name": "MaxPooling2D", "config": {"name": "max_pooling2d_2", "dtype": "float32", "trainable": true, "data_format": "channels_last", "pool_size": [8, 8], "padding": "valid", "strides": [8, 8]}, "inbound_nodes": [[["input_3", 0, 0, {}]]], "name": "max_pooling2d_2"}, {"class_name": "Conv2D", "config": {"kernel_initializer": {"class_name": "VarianceScaling", "config": {"dtype": "float32", "distribution": "uniform", "scale": 1.0, "seed": null, "mode": "fan_avg"}}, "name": "block5_conv4", "kernel_constraint": null, "bias_regularizer": null, "bias_constraint": null, "dtype": "float32", "activation": "relu", "trainable": true, "data_format": "channels_last", "padding": "same", "strides": [1, 1], "dilation_rate": [1, 1], "kernel_regularizer": null, "filters": 512, "bias_initializer": {"class_name": "Zeros", "config": {"dtype": "float32"}}, "use_bias": true, "activity_regularizer": null, "kernel_size": [3, 3]}, "inbound_nodes": [[["block5_conv3", 0, 0, {}]]], "name": "block5_conv4"}, {"class_name": "ZeroPadding2D", "config": {"padding": [[4, 4], [4, 4]], "dtype": "float32", "trainable": true, "name": "zero_padding2d", "data_format": "channels_last"}, "inbound_nodes": [[["max_pooling2d", 0, 0, {}]]], "name": "zero_padding2d"}, {"class_name": "ZeroPadding2D", "config": {"padding": [[4, 4], [4, 4]], "dtype": "float32", "trainable": true, "name": "zero_padding2d_2", "data_format": "channels_last"}, "inbound_nodes": [[["max_pooling2d_2", 0, 0, {}]]], "name": "zero_padding2d_2"}, {"class_name": "MaxPooling2D", "config": {"name": "block5_pool", "dtype": "float32", "trainable": true, "data_format": "channels_last", "pool_size": [2, 2], "padding": "valid", "strides": [2, 2]}, "inbound_nodes": [[["block5_conv4", 0, 0, {}]]], "name": "block5_pool"}, {"class_name": "Conv2D", "config": {"kernel_initializer": {"class_name": "VarianceScaling", "config": {"dtype": "float32", "distribution": "uniform", "scale": 1.0, "seed": null, "mode": "fan_avg"}}, "name": "conv2d", "kernel_constraint": null, "bias_regularizer": null, "bias_constraint": null, "dtype": "float32", "activation": "linear", "trainable": true, "data_format": "channels_last", "padding": "valid", "strides": [4, 4], "dilation_rate": [1, 1], "kernel_regularizer": null, "filters": 96, "bias_initializer": {"class_name": "Zeros", "config": {"dtype": "float32"}}, "use_bias": true, "activity_regularizer": null, "kernel_size": [8, 8]}, "inbound_nodes": [[["zero_padding2d", 0, 0, {}]]], "name": "conv2d"}, {"class_name": "Conv2D", "config": {"kernel_initializer": {"class_name": "VarianceScaling", "config": {"dtype": "float32", "distribution": "uniform", "scale": 1.0, "seed": null, "mode": "fan_avg"}}, "name": "conv2d_1", "kernel_constraint": null, "bias_regularizer": null, "bias_constraint": null, "dtype": "float32", "activation": "linear", "trainable": true, "data_format": "channels_last", "padding": "valid", "strides": [4, 4], "dilation_rate": [1, 1], "kernel_regularizer": null, "filters": 96, "bias_initializer": {"class_name": "Zeros", "config": {"dtype": "float32"}}, "use_bias": true, "activity_regularizer": null, "kernel_size": [8, 8]}, "inbound_nodes": [[["zero_padding2d_2", 0, 0, {}]]], "name": "conv2d_1"}, {"class_name": "GlobalAveragePooling2D", "config": {"dtype": "float32", "trainable": true, "name": "global_average_pooling2d", "data_format": "channels_last"}, "inbound_nodes": [[["block5_pool", 0, 0, {}]]], "name": "global_average_pooling2d"}, {"class_name": "ZeroPadding2D", "config": {"padding": [[2, 2], [2, 2]], "dtype": "float32", "trainable": true, "name": "zero_padding2d_1", "data_format": "channels_last"}, "inbound_nodes": [[["conv2d", 0, 0, {}]]], "name": "zero_padding2d_1"}, {"class_name": "ZeroPadding2D", "config": {"padding": [[1, 1], [1, 1]], "dtype": "float32", "trainable": true, "name": "zero_padding2d_3", "data_format": "channels_last"}, "inbound_nodes": [[["conv2d_1", 0, 0, {}]]], "name": "zero_padding2d_3"}, {"class_name": "Dense", "config": {"kernel_initializer": {"class_name": "VarianceScaling", "config": {"dtype": "float32", "distribution": "uniform", "scale": 1.0, "seed": null, "mode": "fan_avg"}}, "name": "dense", "kernel_constraint": null, "bias_regularizer": null, "bias_constraint": null, "dtype": "float32", "activation": "relu", "trainable": true, "kernel_regularizer": null, "bias_initializer": {"class_name": "Zeros", "config": {"dtype": "float32"}}, "units": 4096, "use_bias": true, "activity_regularizer": null}, "inbound_nodes": [[["global_average_pooling2d", 0, 0, {}]]], "name": "dense"}, {"class_name": "MaxPooling2D", "config": {"name": "max_pooling2d_1", "dtype": "float32", "trainable": true, "data_format": "channels_last", "pool_size": [7, 7], "padding": "valid", "strides": [4, 4]}, "inbound_nodes": [[["zero_padding2d_1", 0, 0, {}]]], "name": "max_pooling2d_1"}, {"class_name": "MaxPooling2D", "config": {"name": "max_pooling2d_3", "dtype": "float32", "trainable": true, "data_format": "channels_last", "pool_size": [3, 3], "padding": "valid", "strides": [2, 2]}, "inbound_nodes": [[["zero_padding2d_3", 0, 0, {}]]], "name": "max_pooling2d_3"}, {"class_name": "Dropout", "config": {"name": "dropout", "dtype": "float32", "trainable": true, "rate": 0.5, "seed": null, "noise_shape": null}, "inbound_nodes": [[["dense", 0, 0, {}]]], "name": "dropout"}, {"class_name": "Flatten", "config": {"dtype": "float32", "trainable": true, "name": "flatten", "data_format": "channels_last"}, "inbound_nodes": [[["max_pooling2d_1", 0, 0, {}]]], "name": "flatten"}, {"class_name": "Flatten", "config": {"dtype": "float32", "trainable": true, "name": "flatten_1", "data_format": "channels_last"}, "inbound_nodes": [[["max_pooling2d_3", 0, 0, {}]]], "name": "flatten_1"}, {"class_name": "Dense", "config": {"kernel_initializer": {"class_name": "VarianceScaling", "config": {"dtype": "float32", "distribution": "uniform", "scale": 1.0, "seed": null, "mode": "fan_avg"}}, "name": "dense_1", "kernel_constraint": null, "bias_regularizer": null, "bias_constraint": null, "dtype": "float32", "activation": "relu", "trainable": true, "kernel_regularizer": null, "bias_initializer": {"class_name": "Zeros", "config": {"dtype": "float32"}}, "units": 4096, "use_bias": true, "activity_regularizer": null}, "inbound_nodes": [[["dropout", 0, 0, {}]]], "name": "dense_1"}, {"class_name": "Concatenate", "config": {"dtype": "float32", "trainable": true, "name": "concatenate", "axis": -1}, "inbound_nodes": [[["flatten", 0, 0, {}], ["flatten_1", 0, 0, {}]]], "name": "concatenate"}, {"class_name": "Dropout", "config": {"name": "dropout_1", "dtype": "float32", "trainable": true, "rate": 0.5, "seed": null, "noise_shape": null}, "inbound_nodes": [[["dense_1", 0, 0, {}]]], "name": "dropout_1"}, {"class_name": "Lambda", "config": {"function": ["YwEAAAABAAAABAAAAFMAAABzEwAAAHQAAGoBAHwAAGQBAGQCAIMBAVMoAwAAAE50BAAAAGF4aXNp\nAQAAACgCAAAAdAEAAABLdAwAAABsMl9ub3JtYWxpemUoAQAAAHQBAAAAeCgAAAAAKAAAAABzOQAA\nAC9yb290Ly5sb2NhbC9saWIvcHl0aG9uMi43L3NpdGUtcGFja2FnZXMvdHJhaW5lci9tb2RlbC5w\neXQIAAAAPGxhbWJkYT6GAQAAdAAAAAA=\n", null, null], "name": "lambda_1", "output_shape_module": null, "dtype": "float32", "trainable": true, "module": "trainer.model", "function_type": "lambda", "output_shape_type": "raw", "output_shape": null, "arguments": {}}, "inbound_nodes": [[["concatenate", 0, 0, {}]]], "name": "lambda_1"}, {"class_name": "Lambda", "config": {"function": ["YwEAAAABAAAABAAAAFMAAABzEwAAAHQAAGoBAHwAAGQBAGQCAIMBAVMoAwAAAE50BAAAAGF4aXNp\nAQAAACgCAAAAdAEAAABLdAwAAABsMl9ub3JtYWxpemUoAQAAAHQBAAAAeCgAAAAAKAAAAABzOQAA\nAC9yb290Ly5sb2NhbC9saWIvcHl0aG9uMi43L3NpdGUtcGFja2FnZXMvdHJhaW5lci9tb2RlbC5w\neXQIAAAAPGxhbWJkYT5zAQAAdAAAAAA=\n", null, null], "name": "lambda", "output_shape_module": null, "dtype": "float32", "trainable": true, "module": "trainer.model", "function_type": "lambda", "output_shape_type": "raw", "output_shape": null, "arguments": {}}, "inbound_nodes": [[["dropout_1", 0, 0, {}]]], "name": "lambda"}, {"class_name": "Concatenate", "config": {"dtype": "float32", "trainable": true, "name": "concatenate_1", "axis": 1}, "inbound_nodes": [[["lambda_1", 0, 0, {}], ["lambda", 0, 0, {}]]], "name": "concatenate_1"}, {"class_name": "Dense", "config": {"kernel_initializer": {"class_name": "VarianceScaling", "config": {"dtype": "float32", "distribution": "uniform", "scale": 1.0, "seed": null, "mode": "fan_avg"}}, "name": "dense_2", "kernel_constraint": null, "bias_regularizer": null, "bias_constraint": null, "dtype": "float32", "activation": "linear", "trainable": true, "kernel_regularizer": null, "bias_initializer": {"class_name": "Zeros", "config": {"dtype": "float32"}}, "units": 4096, "use_bias": true, "activity_regularizer": null}, "inbound_nodes": [[["concatenate_1", 0, 0, {}]]], "name": "dense_2"}, {"class_name": "Lambda", "config": {"function": ["YwEAAAABAAAABAAAAFMAAABzEwAAAHQAAGoBAHwAAGQBAGQCAIMBAVMoAwAAAE50BAAAAGF4aXNp\nAQAAACgCAAAAdAEAAABLdAwAAABsMl9ub3JtYWxpemUoAQAAAHQBAAAAeCgAAAAAKAAAAABzOQAA\nAC9yb290Ly5sb2NhbC9saWIvcHl0aG9uMi43L3NpdGUtcGFja2FnZXMvdHJhaW5lci9tb2RlbC5w\neXQIAAAAPGxhbWJkYT6JAQAAdAAAAAA=\n", null, null], "name": "lambda_2", "output_shape_module": null, "dtype": "float32", "trainable": true, "module": "trainer.model", "function_type": "lambda", "output_shape_type": "raw", "output_shape": null, "arguments": {}}, "inbound_nodes": [[["dense_2", 0, 0, {}]]], "name": "lambda_2"}], "input_layers": [["input_2", 0, 0], ["input_3", 0, 0], ["input_1", 0, 0]], "output_layers": [["lambda_2", 0, 0]], "name": "model"}, "backend": "tensorflow"}